cnn_model.pt (torch, 134005 bytes, 16 tensors)

weight f8 [3, 1, 3]
000000 4b f0 45 a9 23 a4 d6 3f ee 4e e4 6e 1a 26 cc 3f
       0.35376826792321897 0.21991281904831034
000010 18 74 fe 61 58 71 d5 3f 5e 40 eb 0b f5 77 cb 3f
       0.3350430447551971 0.21459830362300897
000020 ec 02 28 c8 88 de d1 bf a0 c3 a0 74 7b b2 db 3f
       -0.2792074160243334 0.43276869191600476
000030 f8 07 5c c0 e1 4b e0 3f 6d d2 93 68 62 b5 dc bf
       0.5092629200955789 -0.44857082569732293
000040 d2 a4 0b e8 12 6a b7 3f
       0.09146230855153029

bias f8 [3]
000000 15 e3 0c e8 54 13 e3 3f 90 b6 2d 31 85 dd d5 3f
       0.5961098224862292 0.3416455250033801
000010 57 15 ea 6a ac 5f c3 3f
       0.15135722370556934

weight f8 [80, 120]
000000 7f 1f ce f4 06 a5 b0 bf a3 91 57 2f 0f 33 9d bf
       -0.06501811482132601 -0.028515088333635707
000010 9e aa 4a 1e cb d7 ad 3f 4e f4 ac 2e a5 61 8c bf
       0.05828699822207749 -0.013858118521620135
000020 06 63 a6 9e db 75 a4 3f da cb da a2 0a 6c 9f 3f
       0.039961684338043965 0.030685583295689024
000030 e9 6d 7b 48 12 b0 a6 bf 97 ea 28 c5 17 8d b0 3f
       -0.044312068317335314 0.06465290606949235
000040 77 58 2a 37 3d 28 b6 3f 27 d4 f6 cc a6 9d 32 3f
       0.08655150029002977 0.0002840549686554138
000050 9d 7b 03 b5 fe 90 b3 3f 84 60 3f 93 61 b1 9d 3f
       0.0764311973502871 0.028996967899587847
000060 df 02 9a 3b c5 2d 9a 3f 15 9c 30 bb 28 10 ab 3f
       0.025565225374978403 0.05285765919716582
000070 37 b5 20 24 b3 73 19 bf 13 2c 2f 47 ca a8 b2 3f
       -9.709149256372373e-05 0.07288803327462316
000080 b9 f2 a8 46 13 3a 92 bf e9 ee 37 64 10 7f a6 bf
       -0.017799664676419556 -0.04393817160959463
000090 9d 46 4f 07 4c d4 b4 3f d8 23 c6 3a 78 53 b7 bf
       0.08136439493616839 -0.09111739573394517
0000a0 7a 75 bf b5 7d 99 ad 3f b5 c8 73 b6 75 6e ab bf
       0.05781166881181839 -0.053577116510397906
0000b0 a7 1b c9 ca cd 26 c3 bf 7f 22 52 4e ac 0a ba bf
       -0.1496217003025013 -0.10172535812501769
0000c0 98 2b b7 88 fd 4b 8e 3f 57 05 7f b7 c4 e4 9a bf
       0.014793377623296952 -0.02626330728503964
0000d0 a5 b2 4f c5 84 b3 9e bf 27 99 79 d3 35 93 8a 3f
       -0.02998168424885485 0.012976093784527422
0000e0 d4 45 99 91 51 ff bf 3f 5b 80 30 ed 2d a6 b7 3f
       0.1249896030870084 0.0923794464183642
0000f0 35 57 11 27 37 7e 88 bf 69 d5 92 3c a1 92 85 3f
       -0.011959486846687998 0.010533580456789609
000100 68 a3 ae 2d 6d 30 42 bf 0a a9 6e 5b 69 4f a3 bf
       -0.000555089292324157 -0.03771523705593623
000110 9e b5 bb f2 9c 08 b9 3f a1 1f 29 b1 3c 75 af 3f
       0.09778767515282147 0.0614413229237123
000120 42 8c 94 f7 ba 7c d3 3f c8 02 e1 5a 72 8e 8a bf
       0.30448793580780287 -0.012967008016972939
000130 c7 fa 7c 82 aa b3 b3 3f d2 cf 1c 12 e6 1d 8a bf
       0.07696023641345127 -0.012752339771033325
000140 c9 30 38 ba 74 06 a1 bf 25 b9 2a 7d 21 39 ac bf
       -0.033252380115386844 -0.055123373536263544
000150 55 49 a4 92 46 c9 7d 3f 0e 0d 4b b5 85 12 c2 bf
       0.007272029566836776 -0.14119025566297022
000160 0a 82 1c 55 56 01 79 3f dc 20 63 64 87 48 a4 bf
       0.006104790912815359 -0.03961585140638288
000170 70 f1 04 11 23 43 98 3f be ae be 1d 0c ae a2 bf
       0.02369360724809283 -0.036484125739062886
000180 86 13 00 b3 38 2a a2 bf d3 ea e7 de 4e fa a0 bf
       -0.0354783743387435 -0.033159699163623955
000190 88 ab 48 e7 4b b0 95 3f 22 5b e8 4c 53 95 38 3f
       0.021180330268332465 0.0003751114244620481
0001a0 61 f6 30 41 0b c7 ab bf 2b 3f 21 ca f9 aa c1 3f
       -0.05425295992652646 0.13803026551840367
0001b0 a0 b3 e5 f7 27 46 8c bf a7 2a 14 2a 97 75 bc 3f
       -0.013805687191700333 0.11116928841890204
0001c0 b0 03 49 d8 16 af 9f 3f 7b e8 5c 70 cb 78 ad 3f
       0.03094134993648695 0.05756221529596047
0001d0 e0 93 9c f1 d1 2a a0 3f 04 f9 8b 35 e7 83 ac bf
       0.031576691382987354 -0.05569384125372959
0001e0 ba 3b 51 b6 97 12 aa 3f 31 f6 d3 6f 1a 82 9d bf
       0.050923100476772246 -0.02881661708396716
0001f0 38 40 5c 7a 00 78 af bf e2 86 78 6b 84 5d b4 3f
       -0.061462416588370095 0.07955196021842029
000200 b5 97 49 42 e8 5e c6 3f b5 e0 95 06 8b 8f ac 3f
       0.1747713397664349 0.055782646707429086
000210 08 41 6c 39 c3 ff b9 3f 17 f2 37 4d e5 97 7a 3f
       0.10155887748647185 0.006492515286933307
000220 e3 14 61 6d f9 62 6f bf 21 ac 26 67 19 31 b2 3f
       -0.0038313743234846694 0.0710616947969105
000230 f3 60 7f 05 97 0e a4 3f 85 fc b4 1d 27 1e b2 3f
       0.03917381231411978 0.07077259516971608
000240 e4 ac 06 e4 13 fd 98 3f 4e c0 6a 52 9f e2 af 3f
       0.024402914803130296 0.062275866327923354
000250 d6 23 bf 8b d2 4b a6 bf ef 94 97 cf 1e fa c9 3f
       -0.0435472293461953 0.20294556747754863
000260 bf 11 97 2d da 0f c9 3f 0e 3e 05 5c c8 b1 70 bf
       0.1957962725265485 -0.004075796751137796
000270 a4 f6 f1 51 1b d9 ad bf b2 58 bd 5f 87 86 ab 3f
       -0.05829701781565902 0.053760748326270216
000280 b5 6a 11 77 3a 04 ad 3f f2 a5 d0 3d cc d7 8d bf
       0.05667288497416704 -0.014571757923550675
000290 37 66 5e 68 60 65 ae 3f 36 47 16 77 30 40 92 bf
       0.05936719202072676 -0.017822987812514422
0002a0 76 ec 3d 7d 86 ae 63 bf 52 26 07 e0 fc f8 ac bf
       -0.002402556108732019 -0.05658712610927509
0002b0 2f a1 a8 f1 44 98 b5 bf 53 55 6f 37 6e c9 b2 3f
       -0.0843546953188976 0.07338608601943024
0002c0 ec f7 e9 14 49 9d af 3f ba bb f1 54 54 04 95 3f
       0.06174686794564352 0.02052432793101009
0002d0 55 ec 90 a5 0c 45 a1 bf 22 3c 2d 1c ea 3c ad 3f
       -0.03372993012495643 0.05710536569551318
0002e0 5d ab d9 fd 74 98 b9 bf 23 8d d4 6a 12 d3 4c 3f
       -0.09998255918041594 0.0008796539238215311
0002f0 cc a6 9f 79 56 03 b3 3f a9 c1 e7 7d 35 77 b5 3f
       0.0742696806843483 0.08385023425922235
000300 bb b3 f9 53 bb b4 b0 bf af 6a 22 18 b4 a2 ad bf
       -0.06525774765186913 -0.05788195414171093
000310 9b cd da 0f b7 fd a3 bf 0f 6b ae 05 86 e8 ab 3f
       -0.03904506748713318 0.054508388703842774
000320 fc 29 a7 af e9 14 b0 3f ae d4 70 b0 1d 24 ad bf
       0.06281910456088008 -0.05691616801088038
000330 04 97 88 dc ce 5f ab 3f ee 47 74 7a 7e bc ac 3f
       0.053465332432365315 0.05612559552004358
000340 24 4e 2b 31 fe 60 89 bf b4 81 5e ff 96 52 90 3f
       -0.012392030597232546 0.015940055214402185
000350 11 ce 21 2f 54 9e ad 3f 79 ad 50 f1 b7 d8 9f bf
       0.0578485782179109 -0.031100153068263723
000360 b9 4a d3 22 1b c5 b5 3f 6a f3 72 ae 5e c6 b9 3f
       0.08503884887913217 0.10068313368806306
000370 bb ac 80 5d 3d 82 a4 3f c4 80 9f dc f7 44 b4 3f
       0.04005615011586757 0.07917737137131825
000380 05 b9 47 b2 19 a3 b8 bf fa d3 34 3c 3f 89 80 3f
       -0.0962387142423929 0.008074277901508598
000390 78 e5 32 91 5f 54 b9 3f e1 ee 50 98 02 ef c2 3f
       0.09894368452923696 0.14791901051818626
0003a0 16 ea 4d ab b3 ee c2 3f e1 79 cd 08 b3 02 a6 3f
       0.14790960182638518 0.04298934442953218
0003b0 7e 2c ba dc 5e 91 8e 3f 2d 16 97 33 ea 5e b7 3f
       0.014925709830342134 0.09129203567052775
0003c0 34 e9 a2 cf 34 7d b2 3f f1 61 e6 13 3d b3 8f 3f
       0.0722229964184507 0.015478589219854096
0003d0 54 4a 1e f1 d5 8c b0 bf 53 ed 8b bc d0 a4 d3 bf
       -0.06464898239782119 -0.3069345322871488
0003e0 21 28 50 22 c8 95 96 3f 47 e1 b5 57 90 76 86 bf
       0.0220557471221029 -0.010968330074988443
0003f0 9d 02 01 50 f5 70 a9 3f f6 53 7a cf 40 41 92 3f
       0.04968992807017012 0.017827046073382
000400 61 90 2a 04 e5 d1 9b 3f 8a fb 99 9e 5f 27 bc bf
       0.02716787183693759 -0.1099757921419792
000410 dd b1 19 cc 5f 45 cd 3f da 9d 4e 97 79 83 a6 bf
       0.22867963281477346 -0.04397182437906695
000420 00 45 1b 3f 24 e8 99 bf 2b e8 dc f4 70 ed c1 3f
       -0.02529961238071099 0.1400586314792361
000430 5a b2 fe 25 f0 b3 a3 3f 58 fb a3 b9 09 cb 94 3f
       0.03848219360165635 0.020305778461075036
000440 01 5c 43 45 b7 99 74 bf f2 a6 1d ca 3c 3f a8 bf
       -0.005029407406445864 -0.04735746352419125
000450 6d a9 10 5f 69 97 96 bf 69 11 10 39 70 2d 98 3f
       -0.022061964442550975 0.02361083362849695
000460 ec 55 7a eb 76 9c bc bf 1f a6 b1 0e 1b 72 a3 3f
       -0.11176245926829836 0.037979932349866845
000470 68 29 c4 33 28 14 b8 3f b6 2d 79 d3 b4 c0 a0 bf
       0.09405757201981191 -0.03272023278676832
000480 49 bf da a4 02 b7 c4 3f 7d a1 f8 4f d0 63 a8 bf
       0.16183503198180407 -0.04763651825152502
000490 86 67 d6 23 c9 6f 87 3f eb f7 98 42 bc 73 a9 3f
       0.011443683057951192 0.049711115960675865
0004a0 df 79 b9 cf d5 db b7 3f 80 37 fc c5 e0 90 9f 3f
       0.09319816895865739 0.030826103290614082
0004b0 49 b0 d5 cc 05 e6 77 bf 36 10 48 34 c0 c8 a5 bf
       -0.005834601074962428 -0.04254723203851578
0004c0 d6 62 ae e6 ae 6a 7d 3f 39 d8 c8 72 64 fc 9b bf
       0.007181819159904198 -0.02732998800839701
0004d0 8a d4 2b 3d 07 93 b5 bf 9b 9d 64 27 bc 2e c3 3f
       -0.08427472346723355 0.14986373828399455
0004e0 45 1e 9d d6 c6 e6 bc 3f d7 bb 21 87 ce 2c b2 3f
       0.11289637317269648 0.07099619673839129
0004f0 1f 09 f0 99 51 cf 22 bf 45 0f 13 37 6d a7 a4 bf
       -0.00014350768194055453 -0.04033986375136903
000500 b2 8c ca 7a 32 ff b1 3f 6a 01 a3 69 50 fa 6c 3f
       0.07030025003273258 0.003537327819771165
000510 f6 05 42 67 93 39 b7 bf 05 87 2d 97 9c 36 cd bf
       -0.0907222869009486 -0.2282291162655882
000520 a4 0e 65 f3 d5 78 b3 bf 02 3b 1d e9 c4 1b a8 3f
       -0.07606255714659454 0.047086862045594216
000530 da 01 d0 e9 48 04 c1 3f ce 79 d5 4d cf 9c 91 3f
       0.13294326225879055 0.017199744344333294
000540 8d da fa 98 ae 0e b1 3f e9 23 03 dc 54 ed a4 bf
       0.06663027987347388 -0.04087319551178565
000550 ef f2 c0 a5 e4 52 a8 3f 8a 8b 98 38 39 fb 81 bf
       0.047507424577338024 -0.008779952087086835
000560 96 b3 bd bf 93 69 b5 3f 7b f6 dc 89 ee c0 ac bf
       0.08364222937752994 -0.056159452752109616
000570 7a 30 6f 41 4d d5 ad 3f 38 34 78 25 93 7a b4 bf
       0.05826798843153909 -0.07999534287246568
000580 cd f7 a5 c2 6e 5d 72 3f 58 93 ce c8 e5 7f b8 3f
       0.004483635575864353 0.09570156242859917
000590 d8 a2 17 6b 65 69 bd bf 78 86 77 c4 18 1b bf 3f
       -0.1148894678550606 0.12150721355967586
0005a0 56 c8 82 c4 76 48 58 3f bc 70 29 1f a9 e3 a9 bf
       0.0014821204986614953 -0.050565037778797145
0005b0 ba d8 33 2b cf da c3 bf ab 5b c8 df 64 c6 b7 3f
       -0.15511502847193076 0.09287100280231068
0005c0 f8 05 ee 34 5d d3 bb 3f 3e 68 53 fc 74 f4 ab 3f
       0.10869391004782603 0.054599433709612274
0005d0 de a5 04 a2 28 89 b2 bf 72 3f de a6 87 e8 a4 3f
       -0.07240537601014504 0.040836562270782376
0005e0 f8 2f b3 2c 0c ef 75 bf ff c9 6e df 6c 83 99 3f
       -0.0053549266405745685 0.024915410172704707
0005f0 1f b3 c6 f2 d4 ae bb 3f 8d 30 d1 be bc d8 a3 bf
       0.10813647200729946 -0.038762949269398474
000600 3f cf 3b 67 cb f3 ba 3f f7 cc 4b 25 38 68 b4 bf
       0.10528250952102967 -0.07971526060628152
000610 d5 62 4f 88 91 44 4a 3f 18 9a 90 79 73 9f ab 3f
       0.0008016310317727435 0.05395089014955462
000620 20 44 66 83 26 31 d0 3f 7a 07 89 92 7f cb 61 bf
       0.2529999049375551 -0.0021722308777336026
000630 2a 8b ee 30 94 8f 88 bf 96 91 9e f0 94 c4 aa 3f
       -0.011992604964523663 0.05228105008362431
000640 92 1d a3 79 85 29 12 3f 86 ed bf e5 21 94 b2 bf
       6.928326766618965e-05 -0.07257282122730233
000650 57 96 a9 6d 1e 37 a1 bf 58 8d 5d b4 2c 3c ba bf
       -0.03362364853527982 -0.10248069194272114
000660 a7 23 dc 9f 4f f0 9c bf af e2 1a 8e 22 e0 97 3f
       -0.028260463840556273 0.02331594459858149
000670 05 a5 03 dc e0 c7 c3 3f a7 20 1e ea 6a fe af 3f
       0.15453730337984709 0.062487927511996326
000680 ea d8 81 37 47 af b5 bf b7 b7 91 2d 15 36 be bf
       -0.0847057829394974 -0.11801273691682367
000690 ef 47 01 36 7f 4e c0 3f 85 2c 51 37 33 a3 bb 3f
       0.12739553582156257 0.10795898533358368
0006a0 fe 5f fc 6a 22 e1 85 bf 7d 04 8a b6 5a 4b b4 bf
       -0.010683316125820849 -0.07927481609842064
0006b0 20 7b ea 54 1b d9 9a 3f 53 bb 6c 1a 22 9b ae 3f
       0.026218821580751173 0.05977732250754877
0006c0 6c 54 2e 6a 29 71 a0 bf 7f 43 ac 91 ae dc 6f bf
       -0.0321133558383416 -0.0038894090224705353
0006d0 22 ab ad c0 4e 5f c0 bf d8 f4 d4 46 a4 93 83 bf
       -0.12790855796932826 -0.009558947955719807
0006e0 74 fd 9b 90 70 16 a1 3f 79 48 af 77 73 3c ae bf
       0.03337432637453733 -0.059054954872082406
0006f0 40 e1 cf fe a0 8b 85 3f c5 4a a2 0f cc d0 b6 3f
       0.010520227218862588 0.08912349111259761
000700 c0 9b 12 53 99 09 ad bf c3 31 08 8a b2 69 9b bf
       -0.0567138589770404 -0.026770391154103523
000710 35 c8 f2 e0 af 46 b8 bf 23 b4 b1 71 ac 49 b0 3f
       -0.09482859842208387 0.06362417007194714
000720 52 9d 51 d1 e2 44 b1 bf 1f 85 fe 52 f4 89 b3 3f
       -0.06745736704180175 0.07632376695848507
000730 f5 c8 dc 8c f7 58 84 bf 8a 54 ae 2c 59 c9 b3 3f
       -0.009935316072731551 0.07729108181804825
000740 a6 8d f9 2b be 07 a6 bf bb 8c bb aa 57 98 b1 bf
       -0.04302782332231496 -0.06873081129338036
000750 94 18 7b c1 b8 af 94 3f 96 58 6d 62 e9 97 c6 3f
       0.02020157509721139 0.17651097589504577
000760 49 eb 2f 8d 3d c5 d5 3f cc db 7b 74 90 6a af 3f
       0.3401636008053868 0.06135989591523802
000770 1a 8d 89 59 56 0d 8a bf 79 29 a4 4e 04 e1 95 3f
       -0.012720751388036567 0.02136618356693407
000780 fa 07 2c a9 bd 15 57 bf d0 97 97 35 76 b6 a8 bf
       -0.001408992019321874 -0.04826707271767783
000790 36 21 ac da 9e bd 93 3f a1 5d cb 7c 40 39 bb 3f
       0.0192780323950796 0.106342344729788
0007a0 97 5e 78 cf 3b 76 b7 3f 07 70 66 89 f0 19 ae 3f
       0.0916478520888354 0.05879165341613662
0007b0 e0 18 b7 12 63 64 b3 bf b9 2c b5 01 2c e8 96 3f
       -0.07575053412356025 0.022370040516119547
0007c0 fd 18 af af 2d 12 99 3f b0 e4 19 6d b4 26 b1 3f
       0.02448340782918822 0.06699683822252456
0007d0 3f 7d 99 65 41 16 a4 bf 0f 9e e4 3a 3d 38 4c bf
       -0.03923229565838903 -0.0008611964201791794
0007e0 4c fd 4f 46 33 26 b7 3f f4 fe a2 ed 6f bc a0 bf
       0.09042664019215357 -0.032687661894213266
0007f0 e2 00 37 92 dc c7 8b bf f5 fd 60 29 fb ae 72 bf
       -0.013564799511073426 -0.004561406231061484

bias f8 [80]
000000 10 48 13 15 f6 72 c1 3f 58 af 37 17 17 94 be 3f
       0.13632083920543936 0.11944717709382979
000010 a5 dc 3f 16 5e 99 b3 bf 25 5d c6 c1 ff 8d a9 bf
       -0.0765589527435276 -0.04991149177947766
000020 0a c6 59 c4 21 86 ad 3f 30 a3 88 4d a5 ac bc bf
       0.057663970202053674 -0.11200936453736854
000030 1d 38 ac b5 e7 3d c1 3f c4 67 5e 57 18 2f ae 3f
       0.13470169420946912 0.05895305696976963
000040 1e 08 78 65 67 31 c4 3f 3b f5 98 c0 00 ad 9e bf
       0.15775768713507515 -0.029956828837602627
000050 f4 65 bd db 7e a2 b0 3f 7f 24 38 cc ae a9 92 3f
       0.06497948517553437 0.01822541352706652
000060 28 05 db cb 4c 26 c8 3f b4 bb be 17 95 57 bd 3f
       0.1886688228023925 0.11461765126908469
000070 11 44 3d 59 5d 3b 72 bf e6 d7 4c f8 c2 52 b5 3f
       -0.004451145785268743 0.08329409181609967
000080 f3 c1 ef a9 70 d4 b3 3f a0 d8 1a 04 38 c5 8b 3f
       0.0774603285679019 0.01355975878264487
000090 18 54 95 8b 08 9c 89 3f d5 91 c3 48 58 9f 85 bf
       0.012504641303772643 -0.010557832451419205
0000a0 8f 22 7c d5 57 66 a9 bf 1e 22 bb 2d 60 63 bc 3f
       -0.04960894089714884 0.11089135281066162
0000b0 24 76 44 ba 99 a6 91 3f 24 e6 ea 5e 15 8b b7 bf
       0.01723709296594768 -0.09196599547694767
0000c0 16 5f 0a a4 8d 17 b5 bf 2b 0f d4 a1 3f 29 c6 bf
       -0.08239064459700915 -0.17313380624556748
0000d0 bf 46 7c 14 9d 12 b3 bf 0b 12 a8 ca d7 79 b7 bf
       -0.07450277090199629 -0.09170292565983844
0000e0 f5 7b ff 1d 82 59 c6 3f 04 77 7e c5 94 08 cc 3f
       0.174606575629667 0.21901187556516544
0000f0 1f 31 6d ea 14 88 be bf d3 2a af aa d0 29 c4 bf
       -0.11926394198707556 -0.15752609571639783
000100 16 0f f7 9a 22 27 c6 3f d3 b5 00 94 e6 bf c1 bf
       0.17306931082395555 -0.13866884447763414
000110 59 eb 2a b3 90 79 b3 3f 41 5f 89 07 cd f2 96 bf
       0.07607368826113027 -0.02241058691501441
000120 59 43 23 b4 30 87 91 3f 84 a2 fa e3 b3 65 bb 3f
       0.01711727237199354 0.10702061000723445
000130 0c f6 49 a4 c5 21 b0 3f fe b7 1e cc fc 79 90 3f
       0.06301532040557606 0.01609034534310893
000140 5b 9c cb 27 42 04 78 3f 7b c6 48 dc 5c 1a 8e 3f
       0.005863436145523949 0.014698720428984338
000150 67 a2 96 b7 27 20 74 bf 54 ef 55 17 8e 8a b1 3f
       -0.0049134780360097 0.06852043218344522
000160 b2 69 fe 3c ee fb 8c bf 31 b1 e4 2d 83 d0 c1 3f
       -0.014152394520171228 0.13917579403767769
000170 af d8 61 f2 48 e5 93 3f 62 b4 16 89 13 35 9c bf
       0.019429340165935723 -0.027546220056752786
000180 f9 2b a6 8d ff b6 c4 bf 5b a6 9a 0b b0 12 a6 3f
       -0.16183466354809165 0.04311132566119787
000190 6c 83 dc 2c 95 e7 ad 3f 56 e5 26 40 97 be b7 bf
       0.058407460905306546 -0.09275193515977284
0001a0 5c 90 3c 75 84 a7 8b bf 42 ea 8e de d3 65 99 bf
       -0.013503107860351964 -0.024802504023435874
0001b0 7a 8e 5c fe 79 cd a5 3f 90 86 cf 3a 60 8c af 3f
       0.04258328657149675 0.06161785810378462
0001c0 fd 25 a7 63 a3 1e 90 bf 7f bd ab b6 59 56 ae bf
       -0.015741875607806922 -0.05925255160206699
0001d0 6b 50 c1 51 67 2f c1 3f ee 8b cd d4 d9 99 a4 3f
       0.13425914279889936 0.04023628924075938
0001e0 4c da 56 ef 2a 92 9b 3f b4 7f 04 0c 3a 01 ba 3f
       0.026924773080930373 0.10158121865651887
0001f0 eb a2 a1 98 3c f1 a1 3f 7d 6c 8e 46 58 3a a2 3f
       0.03504361499000715 0.03560138570102198
000200 42 cb 82 a9 82 41 c0 bf 8e e1 a5 d8 fc 6e c3 bf
       -0.126999218720437 -0.15182457521929077
000210 2a 96 fc f6 8d 89 c7 3f 7d 0d 28 36 10 46 b3 bf
       0.18388533172508065 -0.07528783151797387
000220 f5 5c 4b ec 17 e0 bf 3f 54 4f 49 b6 27 80 c0 bf
       0.12451314467340409 -0.12891098404599666
000230 18 2a 55 57 a9 2a b3 bf b0 68 5e 92 3c 48 84 3f
       -0.07486971265931464 0.009903405396290615
000240 d9 fe 32 54 93 d2 c9 3f 01 97 d5 93 a4 f9 a1 bf
       0.20173875438012237 -0.03510774902933456
000250 38 af 73 14 e3 fc 9a 3f ae d0 b4 11 48 39 a6 3f
       0.02635531246498532 0.04340577331677885
000260 4b 5b ed 9c 19 ee b1 3f e4 cf 88 e1 73 9e a4 3f
       0.07003936845044938 0.040271397858674424
000270 89 8f 86 c0 c9 46 c2 bf 19 71 fe ca 75 ba ae 3f
       -0.14278528118768133 0.0600163278861336

weight f8 [50, 80]
000000 50 75 72 d2 92 ce b3 3f 56 4c 25 47 d5 4f ba 3f
       0.07737081182354655 0.10278065669017286
000010 8f d5 8b 65 93 2b a9 3f 74 65 a8 71 25 cd a4 3f
       0.049160581727771484 0.04062764179634373
000020 21 18 95 cf 7f e1 99 bf fa 21 24 8d 58 ae 9a bf
       -0.02527427391512316 -0.026055701841899627
000030 25 27 4c 6b 7a 7c 8d bf b8 ef 21 6f 51 5f a4 bf
       -0.014397579574069017 -0.039789719406115365
000040 81 20 73 dd 5a bd a4 3f b4 b2 76 7e 61 71 ab bf
       0.04050716355556095 -0.053599402129611035
000050 4a 55 d6 83 ee a3 9a 3f 64 92 22 e5 5c ad b4 bf
       0.02601597480459831 -0.08077030748479214
000060 cd 41 2f 4a 6f c4 b6 bf 4c b8 c4 69 09 ee aa 3f
       -0.08893485604426772 0.05259732643240564
000070 9f 43 14 cc b7 a6 79 bf 81 4b f3 91 eb a1 b6 bf
       -0.006262510259390646 -0.0884082061123035
000080 af c0 a8 15 bc 02 b6 bf e1 1c bc 95 f2 93 ba 3f
       -0.08597922829426595 0.10382000117907665
000090 e2 40 84 71 54 1b a7 bf 57 2a 08 9b 4c 05 a9 3f
       -0.04513038526249759 0.04886855499724579
0000a0 6f d4 b5 12 12 5b 9d bf e1 7c 4a 13 d3 4c 8e 3f
       -0.028667719261154575 0.014794968630040763
0000b0 26 2d 5b 40 99 93 a8 bf ed cc fd 44 fe dd b0 3f
       -0.04800108824346187 0.06588734802589942
0000c0 af 3c c9 9b 9d 36 a6 bf c7 0a 23 d0 48 27 9a bf
       -0.043385434405189265 -0.025540483192126453
0000d0 11 12 b2 70 e4 9f b8 bf e6 89 60 9b e1 fa ad 3f
       -0.09618976355893262 0.05855469724362532
0000e0 ae 24 3e ab cc de 73 bf 46 46 52 a4 6d 61 a2 3f
       -0.004851150024373014 0.0358995688521984
0000f0 03 b6 dd ef 6c a9 b9 3f 5f a4 8b 1d d7 2e 8d bf
       0.10024147850136704 -0.014249497021824263
000100 92 95 d6 b3 1b 1a b9 3f b3 11 a2 0a 33 0a c2 bf
       0.0980546297128824 -0.140936260406432
000110 6b ae 8f 62 8e 1d bc bf 09 bd 25 44 90 6e b4 bf
       -0.10982599169045108 -0.07981206573252932
000120 ff e0 e6 d4 95 28 b9 3f a4 2e 81 dc 00 c3 bf 3f
       0.09827553222465112 0.12406926520741962
000130 2c 5e ef b8 e5 2c b3 bf da 37 a5 37 92 c9 ad bf
       -0.0749038292409458 -0.05817849091782508
000140 ac d1 19 0e b0 8a 8c bf b8 58 37 69 09 64 96 bf
       -0.013936400823902094 -0.02186598496140199
000150 2c 22 79 35 5d d9 ab bf 38 2f 15 82 0c 00 b5 3f
       -0.05439273145436049 0.08203199554298812
000160 33 9a 78 b3 d7 f3 bb bf ba 9b 97 0d 3d 74 91 3f
       -0.10918949252718661 0.017044977144816655
000170 99 92 17 43 f6 34 b6 3f 42 92 3c 2b 04 c0 ab bf
       0.08674563539495707 -0.054199342992693036
000180 32 1f e1 0a 1b 16 bf bf 76 74 0d 8c 9e b7 a0 3f
       -0.12143105521783751 0.03265090427041965
000190 b6 84 c6 45 27 11 b7 3f 21 a7 d4 bc de 32 9f bf
       0.09010549024107459 -0.030467491412458195
0001a0 80 32 53 18 54 c7 c0 bf 71 97 a0 68 cc c8 88 3f
       -0.1310830229544031 0.012101742690059787
0001b0 11 e3 10 20 e8 e4 ad 3f 97 5a 13 4f 67 59 91 3f
       0.05838704482488855 0.016942609979049363
0001c0 00 00 00 00 76 b7 9e bf 4f de 87 97 81 bb b1 3f
       -0.02999672293663025 0.0692673678348623
0001d0 40 04 b5 d1 d6 1d a0 3f 71 c8 60 f8 07 f5 a7 bf
       0.0314776545515163 -0.04679131419142458
0001e0 d0 68 72 67 73 87 b3 3f 35 09 50 1d 87 cc 9c bf
       0.07628556514319773 -0.028123961605168907
0001f0 9e a4 80 42 f6 57 42 3f b2 48 99 e0 7c 52 ab bf
       0.00055980228808496 -0.05336370698627614
000200 f2 3b b4 ba 5d 2a ab bf 16 62 48 ee 68 ed a6 bf
       -0.05305760292150542 -0.04478004368519721
000210 a0 02 5e 3b 13 9a b3 3f a8 df cf 8c 48 f7 a6 bf
       0.07656974982638554 -0.044855372609105715
000220 51 f6 c6 4e 3d 16 bd 3f 73 ba 1b 65 ec b9 b3 3f
       0.11362059758445155 0.07705571621384326
000230 87 0c e0 70 74 8c b7 3f da 83 f3 90 6c b6 8e 3f
       0.09198692088834735 0.014996383832512384
000240 12 7b 98 b9 d2 63 b6 bf 39 1f c5 5e 33 8d b3 3f
       -0.08746068030493984 0.07637330116005793
000250 05 0b 0d 7b 4f 79 bd bf e2 18 07 da f2 1a ba bf
       -0.1151323008935315 -0.10197370360319583
000260 61 34 7f 71 16 33 a0 3f 67 60 87 fd f1 a5 65 3f
       0.0316397679849636 0.0026426054357493903
000270 c1 ad b8 87 a1 ae b6 bf 12 e7 df 35 83 0b b1 3f
       -0.08860215724478505 0.06658191743181543
000280 23 a3 5a 10 ed d4 aa bf 0f 7e 62 42 d4 4f 95 bf
       -0.052405746694893084 -0.020812336494257674
000290 c0 a9 c4 6e 18 97 9d bf a2 37 86 78 a6 24 a4 3f
       -0.028896695862536736 0.039342119419514945
0002a0 4a 68 a5 af 17 e5 68 bf 24 98 48 f2 ce 70 bd 3f
       -0.003038927328060691 0.11500256934286363
0002b0 48 8d d8 bd 16 e2 ac bf bc e8 12 3d e6 e7 a9 3f
       -0.05641242091612725 0.05059737678080142
0002c0 d5 74 cc 96 80 8e be bf 8e 5f 27 cb a1 f4 c0 3f
       -0.11936191255195479 0.13246557635897854
0002d0 c4 3e 9a 6f 3e 2a ae bf 77 d6 13 43 1f 3f b1 bf
       -0.058916045306543846 -0.067369417072621
0002e0 9e 81 e3 3d 64 1e b2 bf ba ed 4a b4 8d 77 b9 3f
       -0.07077623854593759 0.09948049213101387
0002f0 c1 3c d3 c3 a3 a7 af 3f bc 24 d3 de 39 2c ae 3f
       0.06182586446231531 0.05893116803196949
000300 50 d2 83 25 ee 1e bb 3f e7 a3 d0 7b 4e cc bc bf
       0.10594070831195634 -0.11249247095896885
000310 06 08 18 8c eb 71 9c bf da ee b7 11 07 d9 bf 3f
       -0.0277783207184328 0.12440532858448297
000320 f7 57 fe 07 55 cb b8 3f d0 32 4b 0d 64 32 83 3f
       0.09685260243563208 0.009373456626599191
000330 5f 6c 0a 8e 71 cb a0 bf 02 d5 3e 17 f3 98 ac 3f
       -0.03280215128798924 0.055854412639215326
000340 c0 1b f1 1c 75 10 89 3f bc 30 de 95 2c eb 85 3f
       0.012238421388372944 0.01070246536598806
000350 e8 94 c3 d7 82 8f ba bf 96 54 61 10 ba f7 a8 bf
       -0.10375230567622717 -0.04876500558808876
000360 59 3b d1 81 20 f8 bd 3f 60 b2 f8 6a 64 f6 b1 bf
       0.11706736726158108 -0.07016589748008917
000370 bd 70 78 42 7e 9d af bf fa 13 8a 54 fc 06 bb 3f
       -0.061748452772208286 0.1055753427882137
000380 99 e3 9d e9 cd 98 b3 3f 96 b7 d8 b9 0f 20 50 bf
       0.07655035928281818 -0.0009842065404756842
000390 06 53 c8 82 e6 73 af 3f b9 5a d9 5d 7f 2a 8d bf
       0.06143112513033171 -0.0142412138476805
0003a0 21 43 ab 2e 69 ae 92 3f 66 df aa 21 95 59 b5 bf
       0.018243449662637027 -0.08339817115745304
0003b0 f1 af 25 f1 d8 0a a5 bf e7 b3 df c8 20 4a 90 bf
       -0.04109838432017899 -0.01590777612721075
0003c0 dd 00 8f eb d0 76 b1 bf ae dc 88 91 c0 c1 ab bf
       -0.06821923972075035 -0.054212587132889
0003d0 f8 ff a3 cc 4a aa a4 bf 8f ea e0 25 bf 96 a3 3f
       -0.04036172626547335 0.038259480832910524
0003e0 ce 46 4e 48 be 29 b3 3f 7d 96 6e 23 a2 b0 aa 3f
       0.0748557020690683 0.0521288555385526
0003f0 be eb 63 3b a0 96 c2 bf c7 38 65 99 37 db ba 3f
       -0.14522173786084908 0.1049074887752993
000400 86 09 d5 3d 5b 06 9b 3f 09 cc f2 f3 b5 35 a9 3f
       0.026391435288368757 0.049237905529842925
000410 a1 89 6c 23 90 f5 96 3f 24 1b 75 62 0c c5 95 bf
       0.022421123659236767 -0.021259492406240046
000420 7c 5f 09 a8 1e a1 b8 3f ad 31 c4 58 62 10 86 3f
       0.09620849230247858 0.01077343781846526
000430 05 31 49 54 89 46 99 3f c2 48 42 11 c5 6d b0 3f
       0.02468313767376264 0.06417495414123933
000440 ac de b6 c5 79 30 92 3f 4d 0d a2 f7 a1 02 8e 3f
       0.017763045017743437 0.014653458947811027
000450 b6 50 51 70 f4 7b a4 bf 4d f7 2a b6 66 83 b6 bf
       -0.0400082003695003 -0.0879425234552091
000460 c3 7c d7 2a cf db b4 3f 66 bc a9 8d 3c dc b3 bf
       0.08147902294102764 -0.07757929285593121
000470 24 25 aa d5 91 96 b5 bf 25 27 63 98 af c6 a5 3f
       -0.08432876078054058 0.04253147826382379
000480 c9 77 df 2e fd 42 c2 3f 48 28 52 23 22 55 b4 3f
       0.14266934193341133 0.07942403185202906
000490 2d 0d 9a 75 84 68 b0 bf 13 ee ec 14 98 e3 bb 3f
       -0.06409480925690465 0.10894155989529279
0004a0 17 5c ba 86 d1 cd a1 bf 9b eb 3e 52 5b 9a a3 bf
       -0.034773395248684995 -0.038287023343819025
0004b0 ed aa 95 5a 00 c2 87 3f b7 17 1f 31 7e 00 90 3f
       0.011600497021125611 0.015626880405555457
0004c0 1a d6 4b 88 99 e4 b3 bf d5 d9 12 e5 ca 3f b5 3f
       -0.07770690515084092 0.08300464718454433
0004d0 a7 ca ad e2 93 4b b6 3f cd 19 c0 29 48 d1 a4 bf
       0.0870907238402575 -0.04065919408462868
0004e0 ca 3c ba 98 00 0e a4 bf 36 ea 61 68 76 01 c0 3f
       -0.03916932930325741 0.125044632881172
0004f0 6a 56 48 2a 57 3c c1 3f f7 2d 3e f2 71 f6 aa bf
       0.13465394558504623 -0.05266147691790118
000500 ba dc aa 2a 16 aa b6 bf 74 4c 1f 60 8d 4d a3 bf
       -0.08853281537709537 -0.037701051696466786
000510 b3 41 d5 00 8a 0a b8 bf 93 9b 89 66 a2 2c 93 bf
       -0.09391081352555979 -0.018724954136270688
000520 5f 81 2e ac 24 07 90 3f 0d 9c ef d3 63 26 97 3f
       0.015652249344954124 0.022607383547349303
000530 58 6e 03 1a 79 1e 94 bf 0f fe a9 db 06 54 af bf
       -0.019647495472652515 -0.06118794852681841
000540 49 39 5a 89 73 64 c0 3f 6b d6 a8 92 4a 98 7f 3f
       0.12806553084051078 0.007713595676752764
000550 94 48 2b 14 f3 74 b7 3f c5 44 2c 26 61 6a b7 3f
       0.09162825815590941 0.09146697217899476
000560 a4 77 55 28 d4 d5 64 3f 0b f8 07 c8 c7 85 b2 3f
       0.0025433677389363352 0.07235382684299922
000570 60 25 94 82 5b c0 b0 3f 48 66 10 b5 e6 96 b7 3f
       0.06543514192539623 0.09214631958493513
000580 21 23 d3 0b d3 db a4 3f 72 75 8b ce 5e de ab bf
       0.040739627068950186 -0.054430926049216746
000590 f2 0a 40 de a3 75 bf 3f c9 ee 13 f0 e7 69 b1 bf
       0.12288879562406033 -0.06802224742198883
0005a0 64 14 c8 cd eb 58 af 3f fc b3 3e 8f fb 3f 80 3f
       0.061225289220637774 0.007934537228573284
0005b0 34 48 8b 9c 16 13 b9 3f 3d 69 5f aa 00 e4 a2 3f
       0.09794751474262925 0.03689577178711765
0005c0 af 81 ba 3f f4 76 a4 3f 4b 77 e0 be bd 5a b0 3f
       0.039970047740328744 0.06388460073546047
0005d0 6f b4 bc db cf 20 b1 bf 96 b4 7a a5 4a 27 9b bf
       -0.0669069205730055 -0.02651707301145175
0005e0 1e 93 68 c0 f8 ba a0 3f ed 47 9b b0 64 98 a4 3f
       0.032676480758061496 0.040225168760699016
0005f0 c6 96 37 45 91 54 b9 bf a7 3d 7c 31 04 01 45 3f
       -0.09894664707061471 0.000640990302572965
000600 31 de 9e 5f 34 b0 84 bf 7b 37 c5 17 54 3b bf bf
       -0.010101708572491127 -0.121999030879321
000610 b1 2d dc 99 7f 34 91 3f be 95 cb af 22 ae 85 bf
       0.01680182816111903 -0.010586043348164927
000620 a1 95 b7 7a 7f e3 62 bf 88 c2 cd 3b 45 0d bc 3f
       -0.0023057451087306756 0.1095774909024475
000630 88 02 0a eb e5 9a b5 3f cb 4e 63 35 3a 72 be 3f
       0.08439480770358376 0.11893047145286599
000640 48 86 11 7d 84 c4 95 3f 86 3e 9c d8 05 b1 5e bf
       0.02125746739728232 -0.001873260220637636
000650 71 e4 03 c5 12 14 a7 bf d4 f5 b6 24 21 ed 9d 3f
       -0.045075022268016414 0.029224889627348663
000660 d8 98 76 50 23 01 6a bf 5c cb 9c fe 76 c1 b6 3f
       -0.003174370740185766 0.08888953891873314
000670 ad ca 2b 2f 72 57 a2 3f d4 84 cd 73 8a 3f 6d 3f
       0.035823410280405234 0.0035703376910737137
000680 17 43 49 ae f0 19 ba bf bd 5a 95 97 aa 24 b1 bf
       -0.10195831542047205 -0.06696573448912609
000690 0b 19 fc 86 43 76 7e bf ab 17 15 a1 08 72 b0 bf
       -0.007437003878072677 -0.0642400162952003
0006a0 22 bb d7 cd 4d 26 bc bf e3 b9 32 2f 90 55 ae bf
       -0.10995947146851084 -0.05924654556416777
0006b0 dd 3d 4f db fa bd a0 3f 6e cb f9 ae 5c ed b0 bf
       0.032699431677993586 -0.06612185737485074
0006c0 4d 99 ee a1 33 58 bb bf 1c d0 cd a3 04 c1 c2 bf
       -0.10681460097712155 -0.14651544569244457
0006d0 cc a6 bc d9 fc 79 a6 3f db 18 de 57 81 2f af bf
       0.04389944227143658 -0.060909311271687826
0006e0 ff 9d ee 2e ed 6e b4 3f 4f 83 88 45 89 ee b0 bf
       0.07981760402491743 -0.06613977382268142
0006f0 78 7b 79 30 ea 26 b1 3f c0 12 94 7a 2e 89 b3 3f
       0.06700004275761084 0.07631197445523252
000700 ae 22 c3 35 7a e4 b6 bf ef e7 4d 37 7c c1 ae 3f
       -0.08942378819041139 0.06006992507077757
000710 5e d9 56 67 af b0 ac 3f 2a b2 bb 4e 0b 8a 81 3f
       0.05603550087419039 0.008564079609152026
000720 90 16 18 7e e1 cb b8 3f 7e 62 55 3e 32 51 a5 bf
       0.0968609745833311 -0.04163510332972907
000730 c6 9e f0 9d 99 3b c1 bf fc f0 d7 77 f8 35 a4 bf
       -0.134631349677184 -0.03947426283773045
000740 de c2 a5 49 2a 0d 78 3f 01 11 c4 81 ae 6b b6 bf
       0.005871930300018062 -0.08758059185135282
000750 60 6e 2b 3f 0c 63 a2 3f c2 4d 1d ee d5 98 ae bf
       0.03591192504037788 -0.05975979358359097
000760 81 26 e2 4b 81 29 ac 3f c0 34 2c 3e 69 18 75 3f
       0.0550041585093597 0.005150233368806656
000770 63 97 c8 dc ec fa bf bf a1 c9 60 6a aa 4c bf 3f
       -0.12492256536697037 0.12226357552643786
000780 4b ce d5 69 40 25 95 3f e3 3d 80 fd 73 6a b2 3f
       0.020649916133562745 0.0719368451975622
000790 df f8 04 17 b2 46 bd bf dd 9d 09 b1 e8 da b9 bf
       -0.11435998022077197 -0.10099653551298311
0007a0 83 bd 14 da 31 de c2 3f 04 d5 bf 50 cd aa ab bf
       0.14740584515082497 -0.05403749094686286
0007b0 f6 54 b3 72 72 c9 75 bf ae df 57 c5 9f c4 bf bf
       -0.005319068014803854 -0.1240939957423268
0007c0 dd 6e 38 7d 98 1a 60 3f 51 d7 a1 5a b8 66 be bf
       0.00196580679927459 -0.1187548848409652
0007d0 e9 05 4b 5a 4e 0b bc 3f 0d 74 e5 bd 57 da 8e bf
       0.10954751686497101 -0.015064893229174836
0007e0 5d 0a 19 64 88 f2 7a bf ba 1e dd dd 38 e6 b7 bf
       -0.006578953530665813 -0.09335666100116216
0007f0 3e ed b5 e4 90 d8 af bf 9e a0 54 dc aa cb b6 3f
       -0.0621991423785979 0.0890452182690091

bias f8 [50]
000000 7e 8b 0c 71 2c 00 c2 3f c2 d6 51 e7 80 6d c5 bf
       0.14063029785128472 -0.16740428252130896
000010 79 66 77 d4 4e 0a b1 3f 7c 63 69 d4 89 9e b0 3f
       0.06656353652160786 0.06491910396415607
000020 bc ec cf 36 f1 48 c2 3f 7b 7e d0 7c 80 78 b4 3f
       0.14285102058770416 0.07996371314265531
000030 f0 f0 a3 d6 99 05 6e bf 0c 91 c2 8b 64 f5 76 3f
       -0.0036647801072132655 0.005605118520325424
000040 49 6f be fb 51 ab b0 3f 21 e2 e8 7f 5a 9f 80 3f
       0.06511413951960522 0.008116442707533146
000050 5a 1b 17 78 f2 fb b8 3f 45 c4 a8 40 08 05 8a bf
       0.09759440833941593 -0.012704910729640537
000060 4e 8d c2 4e e8 91 b0 bf 4b e5 99 fe e3 7f 7e bf
       -0.06472637102938458 -0.007446184734015769
000070 2a fb 0e a7 32 ba c1 3f 25 05 87 b5 78 48 b3 bf
       0.138494807788413 -0.07532457763501961
000080 ef 59 65 1f 99 6f cb 3f ac 7d b7 6c 2b cd ae 3f
       0.21434320481303312 0.06015907003506568
000090 2d 3d 6b 5b 0e 5d 7c 3f 62 14 4a 88 e5 05 b6 3f
       0.006924682695810075 0.08602747514130862
0000a0 b9 dc 7e 6a c0 d8 c4 3f 4d 21 c4 0a 2e c4 cd 3f
       0.1628647346494512 0.23254943395319075
0000b0 eb 61 7b df 15 c2 81 3f ee 07 7d ba 7e 80 c5 bf
       0.008670969851139318 -0.16798385721091286
0000c0 24 95 68 8b 42 22 6b 3f 8c 74 17 ee e4 62 c7 3f
       0.0033122348497892796 0.18270551324431883
0000d0 48 ac bc 4b a9 70 ba bf 27 7f 8a 81 4d 50 c6 3f
       -0.10328157519386238 0.17432564568752548
0000e0 6f 5e a6 08 66 00 8d 3f 04 c6 87 88 c5 ad bb bf
       0.014160916460965482 -0.10812029441128607
0000f0 cb ed a2 b9 e3 38 b1 3f ed b9 06 1d 38 d3 98 3f
       0.06727431566371604 0.024243237277625274
000100 72 96 45 c3 bb f1 9a 3f 26 ab c8 ec 1e 30 c3 3f
       0.02631276492447516 0.1499060302897643
000110 d7 21 63 90 ef 16 92 3f bb 03 83 6f 1d a6 a4 3f
       0.0176656181218123 0.040329856741215996
000120 7e 2d 8c 7a ca 10 89 bf ef a9 de e5 89 77 ab 3f
       -0.012239057412009254 0.05364638262775034
000130 44 8f a5 62 2c ce 80 3f c8 53 9f 0a 02 5b ac bf
       0.008205744514902975 -0.0553818357435954
000140 ea e8 4a f1 8b 0c 99 3f 2c 24 4c 96 38 1d 9f bf
       0.024461924173672246 -0.030384906934191644
000150 54 19 e7 b7 a2 16 b5 3f dc b6 7e 86 68 10 bc 3f
       0.08237664213001966 0.10962537082260887
000160 0a 9b 7b 42 e3 cd 93 bf 57 a6 ae 05 95 ef 8e 3f
       -0.019340086872854413 0.015105404125125661
000170 9f 0e d3 02 e3 39 b0 bf b0 38 ce 47 78 8b b1 bf
       -0.06338328188854313 -0.06853439095559355
000180 a4 0e 66 38 0e 62 96 3f a1 f7 1b de 6c a6 94 3f
       0.021858427231122093 0.020166111999962436

weight f8 [30, 50]
000000 c9 6b 65 07 b7 ee ac 3f 64 87 8f 0d f8 29 b2 3f
       0.05650875058446265 0.07095289546080391
000010 7b 11 f2 95 e1 4f be 3f f2 8b a1 1f 8e e5 c4 bf
       0.11840639029293769 -0.16325546783909278
000020 d1 bd b5 86 fc 14 8e 3f 87 fc b3 08 03 47 bc bf
       0.014688465939541569 -0.11045855486371368
000030 43 9d 46 9b 05 e0 b5 bf cf b9 e0 0b 5e 90 87 3f
       -0.08544955292619698 0.011505827653391613
000040 25 ff 89 c0 a5 42 c1 bf 81 48 92 b9 53 19 b7 bf
       -0.1348464193470075 -0.09023021011879175
000050 c0 94 81 c9 75 eb be 3f a7 19 ea 58 1b 89 a9 bf
       0.12078033608993888 -0.049874167064490486
000060 d9 76 c3 79 58 52 b7 bf 76 aa 6d 26 1b b3 92 bf
       -0.09110024426214682 -0.018261360378725354
000070 ec 29 04 9f 65 c4 b3 bf 55 df b6 16 f5 eb bc 3f
       -0.07721552974923157 0.1129754238562531
000080 d3 8d 3a 63 cb ea c3 3f eb 68 51 b7 c5 cb b4 3f
       0.15560285897400536 0.08123431897675785
000090 39 80 cd 4a 6a 61 b4 3f 6a 44 8d a7 fb 91 8b bf
       0.07961143804777827 -0.013462034273887553
0000a0 fe 05 e6 73 ec c4 9e bf 63 09 f8 e8 1f 43 b1 bf
       -0.03004807908428652 -0.0674304908534729
0000b0 f9 b2 a5 56 c3 f6 b0 3f 40 fe 85 59 2c 90 c2 bf
       0.06626530518924402 -0.14502481814632695
0000c0 11 5c 84 ba fb 0f 90 bf 6c 00 36 7b 8a e4 95 3f
       -0.015685971507164057 0.021379627008628097
0000d0 ac 5f 90 f5 3e f1 b7 bf 08 6c 73 4d 57 64 b3 bf
       -0.0935248708268534 -0.07574983254328072
0000e0 53 e9 6e 16 1a 5a c3 bf 52 70 a0 30 9e 21 b3 bf
       -0.15118719191907334 -0.0747317188947261
0000f0 33 5c f8 87 7d 15 b6 3f e1 fc aa 8a 5f af be bf
       0.08626541680892856 -0.11986348281333249
000100 0c e3 21 c6 7c 7e b4 3f 7e 71 24 11 c7 b0 bc 3f
       0.08005504452911455 0.11207241219057626
000110 c5 70 e1 08 9e 99 bb 3f 00 00 00 80 3e 3a b9 3f
       0.1078127643281191 0.09854498505592346
000120 0d 35 16 e2 2a 07 9f 3f 50 b0 63 cd 4c 15 9e bf
       0.030300779389610222 -0.029378128086065936
000130 09 25 1c 3e 58 43 bb bf 6e 6b de 31 5e 09 78 3f
       -0.10649634853702507 0.005868308971822651
000140 00 00 00 00 b4 dc 8b bf a3 d4 b9 d3 08 1b bb bf
       -0.013604551553726196 -0.10588126343812347
000150 9d 81 d2 f0 8e 5e ab bf fa a8 76 d1 3d 0d 9a 3f
       -0.053455798051120974 0.025441137227667256
000160 58 49 84 8c 46 fc b5 bf 1c 53 ab d5 d1 cd c2 bf
       -0.08588066988548826 -0.14690611775463303
000170 e7 0b f0 fb 5a 49 c1 3f ea 44 af 8a 58 f7 b7 3f
       0.1350511293568097 0.09361794839721296
000180 af d4 a4 75 1f c3 b2 bf 8c 26 cd 3c 8a cd ae bf
       -0.07328983900227358 -0.06016189567760674
000190 c0 ab 37 77 87 3c b1 bf 63 f0 87 92 0d 42 bd 3f
       -0.06732985172827366 0.11428913905541686
0001a0 94 19 00 50 fc 67 a6 3f d9 d2 7f 3c 0e 14 c2 bf
       0.04376209713523163 -0.14123704866474077
0001b0 10 ba 12 63 a6 b0 b1 bf 32 fc 2a b6 70 51 c4 bf
       -0.06910171431329837 -0.1587353600970985
0001c0 fe 80 4a 00 57 c4 41 bf 19 60 b0 fd 79 22 b8 3f
       -0.0005422043619383308 0.09427607005670814
0001d0 5a ae f5 8a ea cd b0 3f 1b fc 03 d6 58 3b a1 3f
       0.06564203159876439 0.03365590679640481
0001e0 5e 23 e4 3c c4 90 94 bf 43 0c c7 55 87 ee a1 bf
       -0.02008349057817626 -0.0350229541977787
0001f0 cf 79 b4 cd bf d4 bc bf 7e 14 3c 39 d1 60 9e 3f
       -0.11262129566282585 0.029666203611686807
000200 bb d3 0b 8a c5 ae b2 bf e4 a4 05 0e 12 3f b9 3f
       -0.07297930355328124 0.09861862985930575
000210 90 50 df 66 e1 a5 bf 3f 82 ec b2 c4 12 74 a2 3f
       0.12362488519221615 0.03604181910619621
000220 16 07 82 7a a0 3d 85 bf 0b af 63 4d de e5 a9 3f
       -0.010371450174946822 0.050581881472537026
000230 9a cc 6a df f9 92 bd bf b3 b4 9b da 6f 32 c1 bf
       -0.11552392677804094 -0.13435171293477807
000240 b5 7c ef 82 1c 0c b7 bf 35 63 6a 02 79 bf b7 3f
       -0.09002855488459967 0.0927653914353755
000250 dd 31 a1 1e 90 3e bc 3f f3 ff ca 52 2f 2d b4 bf
       0.11032963512224776 -0.07881446620285697
000260 22 70 c7 d1 39 f3 ae 3f fe dd 60 0e f1 66 b4 bf
       0.06044941602496602 -0.07969576455149505
000270 c0 df 1a 1f c8 ac b4 bf c8 95 da 08 88 aa a3 3f
       -0.08076143988989681 0.03841042621688079
000280 bb 26 5c d6 9d a1 b8 bf 85 68 c3 d8 3e 3f b0 3f
       -0.09621607287786109 0.0634650496680554
000290 26 42 a1 03 ea 03 c0 3f 35 fe fe f0 1f 2f c1 bf
       0.12511944939844105 -0.1342506338823896
0002a0 96 25 50 cb 96 5d c3 3f 00 00 00 40 1b 47 c1 bf
       0.15129361083408516 -0.13498249650001526
0002b0 b5 cd 31 4a 30 71 b1 bf 1c 97 01 48 25 e4 a0 bf
       -0.06813337146177541 -0.03299061302167969
0002c0 e5 46 d8 bf 54 67 b4 3f 17 73 2a 92 1c 54 9e 3f
       0.0797017067309543 0.029617735310796336
0002d0 00 00 00 40 f2 5c c1 bf 13 4e f2 e0 8b 15 b3 bf
       -0.13564899563789368 -0.07454752199037555
0002e0 29 ec 66 23 a7 70 b9 bf 2c de e9 00 33 f1 88 bf
       -0.09937519659335749 -0.012178801026705953
0002f0 ef ec 3b dc 3b 04 8b bf 42 40 2b 2b b0 d8 bf bf
       -0.013191669138441912 -0.12440014890603471
000300 11 23 b5 50 07 7d 9d 3f 96 6d 2e 93 bc ee a6 3f
       0.028797258664130135 0.04479016586921174
000310 5f bc 02 b7 b4 5c af 3f fd b3 c9 57 f4 3b 8a bf
       0.06125416502015279 -0.012809666565965822
000320 d2 79 4f a0 fb f3 b9 3f b6 33 84 d8 f2 cd c1 3f
       0.10137913383321198 0.13909755298700838
000330 ff 06 c0 e7 d8 44 54 3f 66 a0 8e 79 c6 85 9c bf
       0.001237117597157 -0.027854062241801
000340 66 e1 41 05 4a 02 b1 bf f9 db b7 1d 86 39 b0 bf
       -0.06644117954590953 -0.0633777449182701
000350 c1 8c c1 64 25 fa 73 bf 03 51 1d 1e f9 b3 c1 3f
       -0.004877229756036162 0.13830484362063808
000360 73 90 bd 2d 55 0c a9 3f 2b be 73 e0 a3 1e 72 bf
       0.04892221625667128 -0.004423751968019067
000370 2d ce 78 61 ea cb af bf 5b a7 56 ce 86 2f c4 3f
       -0.06210262718050461 0.1577003963005222
000380 86 2c 21 46 55 a6 a9 bf 83 8c 48 52 10 01 b5 bf
       -0.050097145853748734 -0.0820474816214745
000390 ca c5 1b ae 54 57 a7 3f 8c fb a8 b9 c8 3a 95 bf
       0.04558815598819484 -0.020732055980484485
0003a0 21 ea 91 3d 82 b1 aa bf 89 0a bb 8e 31 37 b7 bf
       -0.052135534301630544 -0.09068593725809583
0003b0 e6 67 74 5e 13 5f 9e 3f 6d af 33 7d 14 84 c2 bf
       0.02965955986028481 -0.14465576279996686
0003c0 98 0f f8 e4 04 24 c3 3f 4e 99 00 88 c6 e8 a8 3f
       0.14953671627165188 0.048650936223838856
0003d0 c9 5a 32 3b 93 ce be 3f e7 1d c5 2c 9e f1 b0 3f
       0.12033958621246223 0.06618679612176202
0003e0 0b bf c8 23 5f 56 b7 bf 97 f6 fe cc 75 5b b1 bf
       -0.09116167663227885 -0.06780182127746524
0003f0 e8 32 2f a5 8e 4e bf bf 84 be 9a 90 a1 6a 9f 3f
       -0.12229243786641641 0.03068020291419639
000400 3d 75 cc 48 0f bb b3 3f ec cb 5a 90 3a 9e 87 3f
       0.07707305457411891 0.011532266168932957
000410 8f c3 0d 38 47 ea c5 3f 2f 99 1b 25 6c 3f bd 3f
       0.17121210324287658 0.11424899965240763
000420 cf c0 da c5 8c f0 c1 3f eb ac 3f 02 7d 04 bf bf
       0.1401535001837204 -0.1211622362604207
000430 38 c3 29 6c 57 b9 99 bf 98 02 c4 a5 ef 03 82 bf
       -0.025121084191087578 -0.0087965700590769
000440 4c 37 92 ba eb 15 b8 3f 27 b0 9c 5d 5f d1 bc bf
       0.09408448510131712 -0.11256977115107301
000450 3c 5b c1 34 f7 df b4 bf 05 ea a2 d4 c3 1c 8c 3f
       -0.0815424445912471 0.0137267398134684
000460 00 00 00 00 4f 79 ba 3f 02 32 af 47 e3 43 af 3f
       0.10341352224349976 0.061064817905933225
000470 bf 32 3c 70 32 10 95 bf 87 8e 91 08 19 18 b5 3f
       -0.020569599247255207 0.08239895304864762
000480 7a cd 5f c6 50 ab b8 3f 49 8c 42 e0 bd 24 c1 3f
       0.09636406748886897 0.13393376779740354
000490 25 8d 7e e1 3d 67 b8 bf 53 3c 1e 30 55 b6 ba bf
       -0.0953253436587614 -0.10434467720755096
0004a0 8b de 74 f0 e9 47 c1 bf 9d e1 0f 9b 83 88 af 3f
       -0.13500713578263332 0.06158839481207965
0004b0 6c 1b 4b 80 48 dd 55 3f 2a 51 ba 3f 99 a8 be 3f
       0.0013344963091854413 0.11976011091093555
0004c0 b1 3e 27 b6 d3 f5 b1 3f e1 27 02 bc 80 fe a4 3f
       0.07015727231123027 0.04100420279526396
0004d0 11 e7 0c ea 37 95 c0 bf a3 4c 06 2a af d5 b3 3f
       -0.12955378463976122 0.07747931266776446
0004e0 d4 7a f9 b4 59 48 b6 3f 02 4c 62 c0 2f bf b5 bf
       0.08704147976230142 -0.08494852492212604
0004f0 50 7e d4 e9 26 b6 ac 3f 69 b0 ca 90 68 e6 ba bf
       0.05607720951433903 -0.10507825407938899
000500 44 2c 52 0c 53 00 b8 bf 11 5c 0b e2 e5 00 ba 3f
       -0.09375495005421991 0.10157620209371056
000510 62 c2 a0 7a 5e b3 aa 3f de b4 d5 c5 38 c7 a6 3f
       0.052149727315172326 0.04448869147277333
000520 55 3a 5d 34 03 f8 9f bf 3e b7 e0 71 4a 8c be 3f
       -0.03121953017335451 0.11932816772670393
000530 9c 27 e1 59 5a c9 c3 3f 57 08 f8 ef 1a 2c a8 bf
       0.1545823038925932 -0.047211496155811154
000540 ea c8 29 2c 5b 2e b1 3f eb 93 9a 1e 40 82 a6 3f
       0.06711358860210095 0.043962482200448814
000550 4d 6f 5a d9 d4 18 c1 bf 1f 22 ae e1 39 18 bb 3f
       -0.133570295457384 0.10583841094752032
000560 e2 c6 16 8e 92 95 bc 3f 13 d0 2f 32 ef f0 c6 3f
       0.11165729493111656 0.17922773314023796
000570 50 e6 c4 ec b9 68 ba 3f 56 b5 dc b7 7b d5 76 bf
       0.10316049604889455 -0.005574687265647546
000580 fb 88 c4 9d 85 18 c3 3f e9 1e b7 b9 ee b0 c3 bf
       0.1491858501768276 -0.15383705204134593
000590 d5 ad d8 0d 1b 59 9f 3f 85 2f 61 55 f3 02 c0 bf
       0.03061334869395956 -0.12509004277159988
0005a0 f7 e8 47 bb 2a d5 b4 bf 32 80 77 6f 4e 66 c1 3f
       -0.08137766907012521 0.13593464319910847
0005b0 0d e3 cd 55 e9 73 b8 3f 68 b2 c6 b9 a4 60 c7 bf
       0.09551866860227794 -0.18263682433225203
0005c0 1c 85 c7 3a 6d 1b b5 3f 47 5d 52 dc a8 62 ad 3f
       0.0824497478966077 0.05739333810304941
0005d0 9a a9 ec 04 4b b7 a0 3f 7d b4 7b bf c4 30 a4 bf
       0.03264841494668076 -0.03943457448426899
0005e0 7f 8d e1 11 eb a2 71 bf 08 38 b5 3b 04 7c bf 3f
       -0.004305761567681698 0.12298609216415468
0005f0 35 57 51 04 3c d9 8a bf a4 9c 1b 02 94 61 a6 3f
       -0.013109654313818811 0.0437132122586317
000600 9f 0e 7b 46 a7 fd b7 3f 2f 90 42 61 fb e2 bd bf
       0.09371419401855484 -0.11674471973907495
000610 89 71 3b e9 88 74 b6 3f b6 11 b4 ce 00 1b b4 bf
       0.08771568006654297 -0.07853703543157206
000620 03 c1 1a 40 18 9e ae 3f 03 4d 3a f3 c3 ea b6 3f
       0.05979991705442169 0.0895197361772269
000630 14 28 5a 8f df b9 c2 bf 2f 96 63 d3 11 7a c3 bf
       -0.14629740237825273 -0.15216276952485105
000640 a5 2b 95 14 43 25 b8 3f 24 d1 8e e3 82 9c a7 3f
       0.09431857349879509 0.04611596134000909
000650 0a a0 ac 7b b4 13 ba bf 3c 68 9d 2d 6f 3f a7 bf
       -0.1018631746234179 -0.04540584022352376
000660 97 2f 19 c2 3c 7c a5 3f 26 6c de ec 5c 7f be bf
       0.041963480657243916 -0.11913090498858078
000670 56 fb 33 e7 c8 28 b4 3f 64 33 d2 2e 8e 29 ab bf
       0.07874732632261092 -0.05305141755625334
000680 d7 be d0 1e fe 13 a3 bf 35 69 aa bd 97 44 ad bf
       -0.03726190687336633 -0.0571639460587953
000690 65 32 fc 2a c6 30 70 3f 67 13 c7 0a fc 5f a2 3f
       0.0039527646001827664 0.035888553920392856
0006a0 8a ab 9c c4 c4 fc be bf 38 42 1d 89 af b0 b9 3f
       -0.12104444313142274 0.10035225961224448
0006b0 d7 0e eb df 6a 98 c2 3f f4 a2 0d 35 72 c8 a3 bf
       0.1452764123297274 -0.03863865754721543
0006c0 98 a6 0d ed 60 2f c0 3f eb 8b b1 6b a2 a0 c0 3f
       0.12644588065022755 0.12990217455362027
0006d0 58 ab 06 3a 83 14 87 bf 48 7b 7b e3 a4 3b c3 3f
       -0.011269593437494826 0.1502576933625852
0006e0 11 38 40 a9 25 4f aa 3f 97 e7 3a 41 9e 6d a7 bf
       0.05138509455728991 -0.04575819536462616
0006f0 d1 3d 47 7d 40 d1 b5 bf dd bb 9a 86 6b 76 a1 bf
       -0.08522418077995232 -0.03410659807320091
000700 37 fc 26 18 9a 20 b1 bf 2b fc ce 0f 03 5b c0 bf
       -0.0669037159886877 -0.12777746459866654
000710 b2 b9 d4 dd 82 1c 75 bf bf fb a3 65 78 66 b2 bf
       -0.005154143521663478 -0.07187607270678507
000720 ff fc 81 e4 5f fb b8 3f 72 0c 6c a1 a4 e8 b9 3f
       0.09758567169955155 0.10120610180824643
000730 b6 ab 07 12 b9 e7 ab bf d9 10 60 52 e7 d2 a1 3f
       -0.05450228066532452 0.03481219177777612
000740 00 f4 14 ab 0c a1 95 3f d3 7a 85 4b 2f df ad bf
       0.021122167531974156 -0.058343389481469686
000750 31 00 2c e1 82 eb 67 bf 00 00 00 00 ed cf ac bf
       -0.002919917701888174 -0.056273847818374634
000760 13 0e 17 9d 36 b6 bb 3f 4b 0b a7 2c 7f 28 95 3f
       0.1082491048355723 0.020662295437215133
000770 da d9 76 32 60 29 c2 3f f5 a3 08 33 33 45 bf bf
       0.14188768829417492 -0.12214965816441732
000780 00 00 00 00 26 4a 83 bf ab df 43 d0 06 31 92 bf
       -0.009418770670890808 -0.01776514669560895
000790 c2 7f a8 91 78 7b b9 bf 32 fe 60 b8 69 b0 76 3f
       -0.09954026752575287 0.005539334268234651
0007a0 ff 87 6a d1 dc 18 b9 bf 6c 7b 39 d1 eb 6b a6 3f
       -0.0980356227178447 0.04379212311754696
0007b0 f8 cb 6e e9 68 65 b2 bf cf e7 7c 66 4c d4 b6 bf
       -0.07185989092867817 -0.08917691709657947
0007c0 74 2b eb f0 ad f6 94 bf a0 1b b9 ca 52 41 c6 3f
       -0.020472257451540313 0.17386851214015753
0007d0 1f 98 85 4b 68 4f bc bf 29 54 d5 c5 ef 33 bd 3f
       -0.11058666080279565 0.11407373981394699
0007e0 18 61 6f 83 a5 45 7c 3f 69 de 76 c5 46 74 bf 3f
       0.006902357613363351 0.12286798783213161
0007f0 b2 56 22 0d 54 95 c1 bf 87 93 1d 22 f5 f3 ad bf
       -0.13736963883700565 -0.05850187341164941

bias f8 [30]
000000 18 f2 e8 f2 dc 1a a2 3f 15 6d 21 02 6d db 8f bf
       0.035361199047177105 -0.015555240275878771
000010 74 12 db 7e 3b 52 b0 bf 7d 87 c8 b9 73 d1 8c bf
       -0.06375476691307275 -0.01407137308803263
000020 27 b6 1a a8 3b 36 83 3f c4 5f fe 63 83 29 7b 3f
       0.00938078505290736 0.006631386990100855
000030 78 86 52 6f a8 a0 c2 bf e1 33 d1 ef 68 46 bf 3f
       -0.14552789149916 0.12216811995422418
000040 db 18 8a 53 2f f6 bd 3f bd 88 6b 92 43 9f bd 3f
       0.11703773297822144 0.11571142506321315
000050 d0 4c dd 95 49 59 ca 3f 20 93 ba b9 42 85 bd bf
       0.20584983651733646 -0.11531464609522546
000060 9f 9e 8f 68 05 16 bf 3f 5b 64 ef 97 78 20 bd bf
       0.1214297657276071 -0.113776719182526
000070 b6 d1 6b f2 ff ad a0 3f f1 a3 99 fe 7b 41 8a 3f
       0.03257751306765348 0.012820213992386061
000080 60 49 47 52 e9 ee 77 3f 01 6f a3 04 01 8d cc 3f
       0.005843078052253453 0.2230530998848437
000090 e6 90 8e 07 c2 65 d1 bf b6 b4 be 16 d5 ab b2 3f
       -0.27183581102350585 0.07293445401474483
0000a0 5f 4f 6c 9c e9 5b a8 bf e0 31 36 f9 88 8d c1 3f
       -0.04757623705350399 0.13713180702724426
0000b0 49 81 17 ef e8 07 79 bf b6 b4 65 b9 f0 40 ad bf
       -0.006111059091807932 -0.057136080390458074
0000c0 3d a3 df f2 c5 5c 91 3f d3 f4 29 c1 fe e2 aa 3f
       0.016955464314295943 0.052513085441185624
0000d0 35 8f 64 ef 48 37 b1 bf b9 a3 6d b2 ec 71 b5 bf
       -0.0672498306708434 -0.08376960140380064
0000e0 00 00 00 00 43 34 a5 3f 18 9e 33 89 fd 60 ce 3f
       0.041414350271224976 0.2373349113397445
